STEdgeAI Core v9.0.0-19802
Created date          : 2024-09-05 19:09:57
Parameters            : generate --target stm32f4 --name test -m D:/zxc_data/WorkSpace/python/max30102/model.tflite --compression none --verbosity 1 --allocate-inputs --allocate-outputs --workspace C:/Users/zxc/AppData/Local/Temp/mxAI_workspace1680604071901008729813058613110309 --output C:/Users/zxc/.stm32cubemx/test_output

Exec/report summary (generate)
----------------------------------------------------------------------------------------------------------
model file         :   D:\zxc_data\WorkSpace\python\max30102\model.tflite                                 
type               :   tflite                                                                             
c_name             :   test                                                                               
compression        :   none                                                                               
options            :   allocate-inputs, allocate-outputs                                                  
optimization       :   balanced                                                                           
target/series      :   stm32f4                                                                            
workspace dir      :   C:\Users\zxc\AppData\Local\Temp\mxAI_workspace1680604071901008729813058613110309   
output dir         :   C:\Users\zxc\.stm32cubemx\test_output                                              
model_fmt          :   float                                                                              
model_name         :   model                                                                              
model_hash         :   0xbd17c128c1eb7f8ee95e313849d78533                                                 
params #           :   771 items (3.01 KiB)                                                               
----------------------------------------------------------------------------------------------------------
input 1/1          :   'input', f32(1x2000), 7.81 KBytes, activations                                     
output 1/1         :   'gemm_10', f32(1x3), 12 Bytes, activations                                         
macc               :   9,081                                                                              
weights (ro)       :   3,084 B (3.01 KiB) (1 segment)                                                     
activations (rw)   :   8,000 B (7.81 KiB) (1 segment) *                                                   
ram (total)        :   8,000 B (7.81 KiB) = 8,000 + 0 + 0                                                 
----------------------------------------------------------------------------------------------------------
(*) 'input'/'output' buffers can be used from the activations buffer

Model name - model
------ --------------------------------- --------------------- ------------ ------- ----------------- --- ------------------ ------------------ ----------------------------- 
m_id   layer (type,original)             oshape                param/size      macc      connected to   | c_size             c_macc             c_type                        
------ --------------------------------- --------------------- ------------ ------- ----------------- --- ------------------ ------------------ ----------------------------- 
0      input (Input, )                   [b:1,c:2000]                                                   |                                       
       reshape_0 (Reshape, RESHAPE)      [b:1,h:40,w:50,c:1]                                    input   |                                       
------ --------------------------------- --------------------- ------------ ------- ----------------- --- ------------------ ------------------ ----------------------------- 
1      pool_1 (Pool, AVERAGE_POOL_2D)    [b:1,h:13,w:16,c:1]                  1,872         reshape_0   |                                       Pool_[0]                      
------ --------------------------------- --------------------- ------------ ------- ----------------- --- ------------------ ------------------ ----------------------------- 
2      conv2d_2 (Conv2D, CONV_2D)        [b:1,h:13,w:16,c:2]   20/80          3,746            pool_1   | -80(-100.0%)       -3,746(-100.0%)    
------ --------------------------------- --------------------- ------------ ------- ----------------- --- ------------------ ------------------ ----------------------------- 
3      pool_3 (Pool, MAX_POOL_2D)        [b:1,h:6,w:8,c:2]                      384          conv2d_2   | +80(+100.0%)       +3,746(+975.5%)    Conv2D_[1]                    
------ --------------------------------- --------------------- ------------ ------- ----------------- --- ------------------ ------------------ ----------------------------- 
4      conv2d_4 (Conv2D, CONV_2D)        [b:1,h:6,w:8,c:2]     38/152         1,730            pool_3   | -152(-100.0%)      -1,730(-100.0%)    
       nl_4_nl (Nonlinearity, CONV_2D)   [b:1,h:6,w:8,c:2]                       96          conv2d_4   |                    -96(-100.0%)       
------ --------------------------------- --------------------- ------------ ------- ----------------- --- ------------------ ------------------ ----------------------------- 
5      pool_5 (Pool, MAX_POOL_2D)        [b:1,h:3,w:4,c:2]                       96           nl_4_nl   | +152(+100.0%)      +1,826(+1902.1%)   Conv2D_[2]                    
------ --------------------------------- --------------------- ------------ ------- ----------------- --- ------------------ ------------------ ----------------------------- 
6      conv2d_6 (Conv2D, CONV_2D)        [b:1,h:3,w:4,c:2]     38/152           434            pool_5   |                    +24(+5.5%)         Conv2D_/Nonlinearity_[3, 4]   
       nl_6_nl (Nonlinearity, CONV_2D)   [b:1,h:3,w:4,c:2]                       24          conv2d_6   |                    -24(-100.0%)       
------ --------------------------------- --------------------- ------------ ------- ----------------- --- ------------------ ------------------ ----------------------------- 
7      reshape_7 (Reshape, RESHAPE)      [b:1,c:24]                                           nl_6_nl   |                                       
------ --------------------------------- --------------------- ------------ ------- ----------------- --- ------------------ ------------------ ----------------------------- 
8      arith_constant8 (Placeholder, )   [h:24,c:24]           576/2,304                                | -2,304(-100.0%)                       
       gemm_8 (Gemm, FULLY_CONNECTED)    [b:1,c:24]                             600         reshape_7   |                    -600(-100.0%)      
                                                                                      arith_constant8   | 
------ --------------------------------- --------------------- ------------ ------- ----------------- --- ------------------ ------------------ ----------------------------- 
9      arith_constant9 (Placeholder, )   [b:1,c:24]            24/96                                    | +2,304(+2400.0%)   +624(+100.0%)      Dense_/Nonlinearity_[5, 6]    
       eltwise_9 (Eltwise, ADD)          [b:1,c:24]                              24            gemm_8   |                    -24(-100.0%)       
                                                                                      arith_constant9   | 
       nl_9_nl (Nonlinearity, ADD)       [b:1,c:24]                              24         eltwise_9   |                    -24(-100.0%)       
------ --------------------------------- --------------------- ------------ ------- ----------------- --- ------------------ ------------------ ----------------------------- 
10     arith_constant7 (Placeholder, )   [h:3,c:24]            72/288                                   | +12(+4.2%)         +75(+100.0%)       Dense_[o][7]                  
       arith_constant3 (Placeholder, )   [c:3]                 3/12                                     | -12(-100.0%)                          
       gemm_10 (Gemm, FULLY_CONNECTED)   [b:1,c:3]                               75           nl_9_nl   |                    -75(-100.0%)       
                                                                                      arith_constant7   | 
                                                                                      arith_constant3   | 
------ --------------------------------- --------------------- ------------ ------- ----------------- --- ------------------ ------------------ ----------------------------- 
model/c-model: macc=9,105/9,081 -24(-0.3%) weights=3,084/3,084  activations=--/8,000 io=--/0



Generated C-graph summary
------------------------------------------------------------------------------------------------------------------------
model name            : model
c-name                : test
c-node #              : 8
c-array #             : 21
activations size      : 8000 (1 segment)
weights size          : 3084 (1 segment)
macc                  : 9081
inputs                : ['input_output']
outputs               : ['gemm_10_output']

C-Arrays (21)
------ ------------------- ----------- ------------------------- ------------- --------- 
c_id   name (*_array)      item/size   domain/mem-pool           c-type        comment   
------ ------------------- ----------- ------------------------- ------------- --------- 
0      conv2d_2_bias       2/8         weights/weights           const float             
1      conv2d_2_output     96/384      activations/**default**   float                   
2      conv2d_2_scratch0   64/256      activations/**default**   float                   
3      conv2d_2_weights    18/72       weights/weights           const float             
4      conv2d_4_bias       2/8         weights/weights           const float             
5      conv2d_4_output     24/96       activations/**default**   float                   
6      conv2d_4_scratch0   32/128      activations/**default**   float                   
7      conv2d_4_weights    36/144      weights/weights           const float             
8      conv2d_6_bias       2/8         weights/weights           const float             
9      conv2d_6_output     24/96       activations/**default**   float                   
10     conv2d_6_weights    36/144      weights/weights           const float             
11     gemm_10_bias        3/12        weights/weights           const float             
12     gemm_10_output      3/12        activations/**default**   float         /output   
13     gemm_10_weights     72/288      weights/weights           const float             
14     gemm_8_bias         24/96       weights/weights           const float             
15     gemm_8_output       24/96       activations/**default**   float                   
16     gemm_8_weights      576/2304    weights/weights           const float             
17     input_output        2000/8000   activations/**default**   float         /input    
18     nl_6_nl_output      24/96       activations/**default**   float                   
19     nl_9_nl_output      24/96       activations/**default**   float                   
20     pool_1_output       208/832     activations/**default**   float                   
------ ------------------- ----------- ------------------------- ------------- --------- 

C-Layers (8)
------ ---------------- ---- --------------- ------ ------ ---------------------- --------------------- 
c_id   name (*_layer)   id   layer_type      macc   rom    tensors                shape (array id)      
------ ---------------- ---- --------------- ------ ------ ---------------------- --------------------- 
0      pool_1           1    Pool            1872   0      I: input_output        f32(1x2000) (17)      
                                                           O: pool_1_output       f32(1x13x16x1) (20)   
------ ---------------- ---- --------------- ------ ------ ---------------------- --------------------- 
1      conv2d_2         3    Conv2D          4130   80     I: pool_1_output       f32(1x13x16x1) (20)   
                                                           S: conv2d_2_scratch0                         
                                                           W: conv2d_2_weights    f32(2x3x3x1) (3)      
                                                           W: conv2d_2_bias       f32(2) (0)            
                                                           O: conv2d_2_output     f32(1x6x8x2) (1)      
------ ---------------- ---- --------------- ------ ------ ---------------------- --------------------- 
2      conv2d_4         5    Conv2D          1922   152    I: conv2d_2_output     f32(1x6x8x2) (1)      
                                                           S: conv2d_4_scratch0                         
                                                           W: conv2d_4_weights    f32(2x3x3x2) (7)      
                                                           W: conv2d_4_bias       f32(2) (4)            
                                                           O: conv2d_4_output     f32(1x3x4x2) (5)      
------ ---------------- ---- --------------- ------ ------ ---------------------- --------------------- 
3      conv2d_6         6    Conv2D          434    152    I: conv2d_4_output     f32(1x3x4x2) (5)      
                                                           W: conv2d_6_weights    f32(2x3x3x2) (10)     
                                                           W: conv2d_6_bias       f32(2) (8)            
                                                           O: conv2d_6_output     f32(1x3x4x2) (9)      
------ ---------------- ---- --------------- ------ ------ ---------------------- --------------------- 
4      nl_6_nl          6    Nonlinearity    24     0      I: conv2d_6_output     f32(1x3x4x2) (9)      
                                                           O: nl_6_nl_output      f32(1x3x4x2) (18)     
------ ---------------- ---- --------------- ------ ------ ---------------------- --------------------- 
5      gemm_8           9    Dense           600    2400   I: nl_6_nl_output      f32(1x3x4x2) (18)     
                                                           W: gemm_8_weights      f32(24x24) (16)       
                                                           W: gemm_8_bias         f32(24) (14)          
                                                           O: gemm_8_output       f32(1x24) (15)        
------ ---------------- ---- --------------- ------ ------ ---------------------- --------------------- 
6      nl_9_nl          9    Nonlinearity    24     0      I: gemm_8_output       f32(1x24) (15)        
                                                           O: nl_9_nl_output      f32(1x24) (19)        
------ ---------------- ---- --------------- ------ ------ ---------------------- --------------------- 
7      gemm_10          10   Dense           75     300    I: nl_9_nl_output      f32(1x24) (19)        
                                                           W: gemm_10_weights     f32(3x24) (13)        
                                                           W: gemm_10_bias        f32(3) (11)           
                                                           O: gemm_10_output      f32(1x3) (12)         
------ ---------------- ---- --------------- ------ ------ ---------------------- --------------------- 



Number of operations per c-layer
------- ------ ------------------------ ------- -------------- 
c_id    m_id   name (type)                  #op           type 
------- ------ ------------------------ ------- -------------- 
0       1      pool_1 (Pool)              1,872   smul_f32_f32 
1       3      conv2d_2 (Conv2D)          4,130   smul_f32_f32 
2       5      conv2d_4 (Conv2D)          1,922   smul_f32_f32 
3       6      conv2d_6 (Conv2D)            434   smul_f32_f32 
4       6      nl_6_nl (Nonlinearity)        24     op_f32_f32 
5       9      gemm_8 (Dense)               600   smul_f32_f32 
6       9      nl_9_nl (Nonlinearity)        24     op_f32_f32 
7       10     gemm_10 (Dense)               75   smul_f32_f32 
------- ------ ------------------------ ------- -------------- 
total                                     9,081 

Number of operation types
---------------- ------- ----------- 
operation type         #           % 
---------------- ------- ----------- 
smul_f32_f32       9,033       99.5% 
op_f32_f32            48        0.5% 

Complexity report (model)
------ ----------------- ------------------------- ------------------------- -------- 
m_id   name              c_macc                    c_rom                     c_id     
------ ----------------- ------------------------- ------------------------- -------- 
1      pool_1            |||||||           20.6%   |                  0.0%   [0]      
3      pool_3            ||||||||||||||||  45.5%   |                  2.6%   [1]      
5      pool_5            |||||||           21.2%   |                  4.9%   [2]      
6      conv2d_6          ||                 5.0%   |                  4.9%   [3, 4]   
9      arith_constant9   |||                6.9%   ||||||||||||||||  77.8%   [5, 6]   
10     arith_constant7   |                  0.8%   ||                 9.7%   [7]      
------ ----------------- ------------------------- ------------------------- -------- 
macc=9,081 weights=3,084 act=8,000 ram_io=0

Generated files (7)
---------------------------------------------------------- 
C:\Users\zxc\.stm32cubemx\test_output\test_data_params.h   
C:\Users\zxc\.stm32cubemx\test_output\test_data_params.c   
C:\Users\zxc\.stm32cubemx\test_output\test_data.h          
C:\Users\zxc\.stm32cubemx\test_output\test_data.c          
C:\Users\zxc\.stm32cubemx\test_output\test_config.h        
C:\Users\zxc\.stm32cubemx\test_output\test.h               
C:\Users\zxc\.stm32cubemx\test_output\test.c               
